weights/Zero_DCE.onnx (onnx, 325898 bytes, 14 tensors)

e_conv1.weight f4 [32, 3, 3, 3]
-0.034157325 -0.0059524784 -0.0030003686 -0.011128542 -0.008238637 0.0008136592 -0.064610586 -0.0226605
-0.06416309 -0.04203036 -0.044163555 -0.022449695 -0.040011697 -0.012784871 -0.0072961487 -0.04903251
-0.025926014 -0.07935954 0.009964707 0.029221212 0.04257681 0.010962215 0.014140532 0.056177583
0.01825715 0.016425278 -0.018882398 0.011375369 -0.010149419 0.03801907 -0.010933838 -0.020553952
0.013110221 0.05130718 -0.008249274 0.022762036 0.016245825 -0.006103939 -0.013611407 0.007464152
-0.027924556 -0.0040408387 0.044181284 0.0044235736 -0.0028413297 -0.018975388 -0.012375365 0.0050201425
-0.020988202 -0.03429569 0.0028360863 -0.0071408055 -0.014994984 -0.009083536 -0.0042731697 0.00059354684
0.0037601169 -0.011087561 0.01893623 -0.0055933828 -0.016674506 0.011977968 -0.030226607 -0.003929292
0.012507873 0.0020931633 0.0050524063 0.0012545232 0.015056952 -0.035479926 -0.015815217 -0.025664039
-0.014218626 -0.019793682 0.0066487654 -0.02114432 -0.0013612293 -0.008618626 -0.0017782995 -0.008645596
0.00970583 -0.03976627 -0.026609346 0.01585045 0.0045701372 0.0019710134 9.738135e-05 0.023938688
-0.0027111517 0.021892847 -0.04235094 -0.03991139 -0.0015551306 -0.018662538 -0.0175274 0.0074666417
0.0045562307 -0.005522549 0.017865201 0.00015740117 -0.007993722 0.023662638 0.005198685 -0.026846211
-1.0350086e-05 0.011634027 -0.017581133 -0.00290339 -0.0023574664 0.007987516 0.015040343 -0.023415431
-0.034398064 0.00037699117 0.0076717013 -0.001672807 -0.00048508914 -0.01558152 -0.0060874424 -0.0006513109
-0.026389094 -0.011243193 -0.00902623 -0.0116039105 -0.009437075 -0.0037223059 0.0019210052 -0.0011303113
0.011451067 -0.008999921 -0.0011418106 -0.007063813 0.0077992817 -0.0011787734 0.005629436 8.74323e-40
8.91774e-40 9.23704e-40 9.09441e-40 7.65377e-40 9.2361e-40 8.9474e-40 7.03435e-40 8.94722e-40
-2.3e-41 -4.0348e-41 -2.5068e-41 -3.5367e-41 -5.5151e-41 -3.3292e-41 -3.4549e-41 -5.3748e-41
-3.7472e-41 -6.1698e-41 -2.4052e-41 -5.1075e-41 -6.4212e-41 -1.7562e-41 -6.7695e-41 -5.991e-41
-2.674e-41 -5.4924e-41 -2.1517585e-06 -2.060685e-06 -1.9535344e-06 -2.4138374e-06 -2.342058e-06 -2.2481743e-06
-2.3333728e-06 -2.2757442e-06 -2.1885485e-06 -2.8423526e-07 -2.7182983e-07 -2.5353967e-07 -3.3404473e-07 -3.2642743e-07
-3.1211258e-07 -3.1502992e-07 -3.109302e-07 -3.001261e-07 -6.5573535e-10 -6.179951e-10 -5.997819e-10 -7.6551093e-10
-7.300766e-10 -7.153031e-10 -7.151427e-10 -6.8952477e-10 -6.780642e-10 0.03068518 0.016689831 0.001698865
0.014212412 0.012131966 0.009202926 -0.005207686 0.0045953807 -0.011549822 -8.920112e-05 -0.012582971
-0.02881546 0.020291694 0.013106798 -0.026435466 -0.026601227 -0.0075163106 -0.029974332 0.013466838
-0.009252378 -0.0023454772 -0.0009678182 -0.014970956 -0.008471124 -0.015220728 -0.0050221207 -0.018783582
-0.022496862 0.004555046 0.002919513 0.001401091 -0.012831459 0.009065736 -0.005122231 0.002878355
0.0068118474 0.024609793 -0.022211747 -0.0012129007 -0.021505464 -0.0013090811 -0.006515211 0.0066421833
-0.011654589 -0.035340115 -0.012176782 -0.007123561 0.0013212895 -0.006065621 -0.015607361 -0.010423693
-0.0009853762 -0.010898805 -0.02570067 -1.475081e-28 -1.4506925e-28 -1.4223626e-28 -1.5460459e-28 -1.5076585e-28
-1.4924268e-28 -1.5100009e-28 -1.4858596e-28 -1.463207e-28 -3.066033e-28 -3.0503555e-28 -3.0530797e-28 -3.140888e-28
00000000: 8de8 0bbd 020d c3bb d5a1 44bb 7d54 36bc
00000010: 59fb 06bc bf4b 553a 8e52 84bd 83a2 b9bc
00000020: f067 83bd 0728 2cbd d8e4 34bd 6ce8 b7bc
00000030: 4ee3 23bd a377 51bc 8814 efbb 50d6 48bd
00000040: cb62 d4bc 4187 a2bd 0343 233c 5361 ef3c
00000050: 0565 2e3d dd9a 333c b1ad 673c 771a 663d
00000060: 0590 953c 4e8e 863c 42af 9abc c15f 3a3c
00000070: c049 26bc e2b9 1b3d d723 33bc c360 a8bc
00000080: 41cc 563c 7a27 523d f727 07bc 7377 ba3c
00000090: f715 853c 8d03 c8bb 6102 5fbc d895 f43b
000000a0: 0ac2 e4bc 0369 84bb 6ff7 343d a0f3 903b
000000b0: 9a35 3abb 4672 9bbc 0bc2 4abc 0280 a43b
000000c0: 73ef abbc a379 0cbd a2dd 393b 6bfd e9bb
000000d0: 85ad 75bc 1dd3 14bc f205 8cbb 4198 1b3a
000000e0: 4b6c 763b 9aa8 35bc 2720 9b3c b248 b7bb
000000f0: f998 88bc 3d3f 443c ca9d f7bc 4ac1 80bb
00000100: d2ed 4c3c 742d 093b a88e a53b d06e a43a
00000110: 6fb1 763c 6653 11bd ea8e 81bc 643d d2bc
00000120: 3df5 68bc 5c26 a2bc e3dd d93b da36 adbc
00000130: 476b b2ba 2335 0dbc d415 e9ba 42a6 0dbc
00000140: 3405 1f3c f5e1 22bd d8fb d9bc ced8 813c
00000150: 17c1 953b 1e2c 013b 3739 cc38 111b c43c
00000160: 94ad 31bb a158 b33c 2e78 2dbd 207a 23bd
00000170: 86d5 cbba 2ee2 98bc 9f95 8fbc bbaa f43b
00000180: 6f4c 953b 80f6 b4bb 0b5a 923c 0e0c 2539
00000190: 1af8 02bc 26d8 c13c bb59 aa3b 96ec dbbc
000001a0: 48a5 2db7 a59c 3e3c 4f06 90bc cd46 3ebb
000001b0: b97f 1abb 12de 023c c56b 763c b8d1 bfbc
000001c0: fce4 0cbd e6a6 c539 e562 fb3b 1742 dbba
000001d0: 9053 feb9 a249 7fbc 2b79 c7bb bcbc 2aba
000001e0: f12d d8bc 5f35 38bc c1e2 13bc 541e 3ebc
000001f0: f69d 1abc eef1 73bb 3dca fb3a f426 94ba
00000200: 429d 3b3c 6874 13bc cea8 95ba 8f77 e7bb
00000210: 1e91 ff3b 1281 9aba 2277 b83b 4285 0900
00000220: e7b5 0900 e90e 0a00 27e7 0900 8f55 0800
00000230: a60e 0a00 2cbe 0900 e4a8 0700 1fbe 0900
00000240: 1d40 0080 7970 0080 e145 0080 9762 0080
00000250: bd99 0080 ce5c 0080 4f60 0080 d495 0080
00000260: 7568 0080 fdab 0080 0c43 0080 608e 0080
00000270: ffb2 0080 f530 0080 b5bc 0080 01a7 0080
00000280: 8a4a 0080 1b99 0080 ee66 10b6 4c4a 0ab6
00000290: 7719 03b6 69fd 21b6 402c 1db6 57df 16b6
000002a0: 0a97 1cb6 fdb8 18b6 fade 12b6 ff98 98b4
000002b0: 02f0 91b4 3a1e 88b4 c256 b3b4 d83f afb4
000002c0: 6d90 a7b4 6221 a9b4 eced a6b4 0421 a1b4
000002d0: 463f 34b0 8adf 29b0 e6dd 24b0 0b6c 52b0
000002e0: 93ae 48b0 fb9e 44b0 b293 44b0 fe88 3db0
000002f0: 8762 3ab0 7d5f fb3c 1db9 883c 73ac de3a
00000300: 2ddb 683c 27c5 463c dfc7 163c 3da5 aabb
00000310: d994 963b 773b 3dbc 7d11 bbb8 ce28 4ebc
00000320: 660e ecbc c43a a63c e5bd 563c 318f d8bc
00000330: d1ea d9bc 624b f6bb bb8c f5bc 03a4 5c3c
00000340: 4997 17bc 94b6 19bb 2eb5 7dba be48 75bc
00000350: 78ca 0abc 5c60 79bc 9a90 a4bb 07e0 99bc
00000360: 574b b8bc 7f42 953b 4d55 3f3b d0a4 b73a
00000370: 0a3b 52bc 7488 143c 63d8 a7bb c9a2 3c3b
00000380: eb35 df3b 7a9a c93c 69f5 b5bc 32fa 9eba
00000390: 3a2c b0bc 7995 abba 8d7d d5bb aca6 d93b
000003a0: e4f2 3ebc ccc0 10bd 2081 47bc c36c e9bb
000003b0: 1e2f ad3a 1ec2 c6bb 04b6 7fbc 23c8 2abc
000003c0: bd27 81ba e790 32bc 368a d2bc 1efd 3a91
000003d0: aae5 3791 4e4e 3491 0ffc 4391 511e 3f91
000003e0: 0530 3d91 556a 3f91 e75a 3c91 c87b 3991
000003f0: 3b55 c291 d956 c191 0d83 c191 d213 c791

e_conv1.bias f4 [32]
0.098888725 0.04093966 0.13699584 0.10353812 0.118255734 -9.631355e-20 -0.0008829709 0.07323737
0.13287489 -1.0740061e-27 -0.17614369 -0.0022361912 -0.00019357108 0.031812057 -0.009830978 0.1180736
0.054280072 0.13778044 0.05959217 0.023899281 -0.03473525 -6.970388e-17 -0.0002832735 0.042202007
0.124140926 -4.6635325e-35 5.368023e-06 -3.528492e-05 0.03509422 0.13338006 0.05443052 0.13608631
00000000: 2c86 ca3d 58b0 273d a348 0c3e cb0b d43d
00000010: 1030 f23d f869 e39f 2d77 67ba 79fd 953d
00000020: 5b10 083e dd2e aa92 035f 34be 108d 12bb
00000030: 57f9 4ab9 5c4d 023d 1c12 21bc 92d0 f13d
00000040: c854 5e3d 5116 0d3e eb16 743d 6dc8 c33c
00000050: 8d46 0ebd e9b9 a0a4 5384 94b9 03dc 2c3d
00000060: 993d fe3d b7f4 7786 f71e b436 e5fe 13b8
00000070: f5be 0f3d c894 083e 89f2 5e3d 365a 0b3e

e_conv2.weight f4 [32, 32, 3, 3]
7.902864e-05 -0.0032962004 0.0065713134 0.0012745772 0.008317848 0.00020659345 0.002998249 8.925239e-05
0.01597662 -0.0042340583 -0.008602594 -0.0021750717 -0.0038468502 -0.009791857 0.0101883365 0.00052269275
0.0031470149 0.013004278 -0.017804528 -0.020317543 -0.012452343 0.0008592061 -0.0041848444 -0.0047216923
-0.0072936644 -0.017410781 0.0049136453 -0.0032460522 -0.006823723 0.0035931836 0.0029467866 -0.005714652
-0.0064528715 -0.008387971 -0.008955149 0.0066258237 -0.014044403 -0.020719355 -0.009959634 -0.012308512
-0.008384836 -0.00018104809 0.008874982 -0.00039373164 0.018101843 6.142e-41 -5.013e-41 -1.2731e-41
9.1782e-41 3.555e-41 -7.8714e-41 -4.7269e-41 9.3768e-41 -7.0246e-41 5.922e-41 -7.2534e-41
-3.9162e-41 2.4734e-41 -4.29e-41 -6.4296e-41 -7.2014e-41 -1.749e-41 -7.9319e-41 -0.002240573
-0.014551878 -0.006646275 -0.009734641 0.003416697 -0.010593537 0.008413408 -0.0030227941 -0.0059473747
-0.0051552746 0.0047717188 0.0034916182 0.0054233395 -0.0014957283 -0.008576042 0.0031239032 -0.0036891685
0.0155859515 -5.2613837e-30 -3.2801134e-30 -5.125959e-30 -4.511438e-30 -2.2333294e-30 -4.545167e-30 -5.5647113e-30
-3.244278e-30 -6.0807157e-30 0.0031816866 0.0066513857 0.011196182 0.0024405876 0.0059608906 0.009611024
0.0037287038 0.00511348 0.009246145 -0.0035616448 0.0028986656 -0.017281733 0.004485823 0.003072915
-0.007553044 -0.009383025 0.0005497716 -0.021684121 8.61546e-34 9.91755e-34 -1.8269851e-33 1.6077624e-33
1.4704276e-33 -1.7947378e-33 -1.3331066e-33 -5.4992597e-34 2.1766592e-33 0.0006936355 -0.0017083483 0.01302608
-0.0066452078 -0.006966219 0.009154024 -0.0018104364 -0.0030091016 0.0033719155 -0.008383309 -0.020615123
-0.025767284 -0.0032522192 -0.018631274 0.014265223 0.009005217 -0.012116575 -0.016654644 0.0057551865
0.002173729 -0.006212103 0.0025780548 -0.015152295 -0.008161827 0.016482038 -0.008166879 -0.00259067
-0.00444584 -0.012698453 0.006112266 -0.005804678 -0.002582766 0.009949646 -0.0048736045 -0.0045905057
0.014320642 0.016450899 -0.004522673 -0.026613634 -0.0064621754 -0.0098275365 -0.007055935 0.002858845
0.0084481975 -0.004874687 0.012129225 0.007890251 0.008041324 0.0104148295 0.0013033239 0.014583575
0.0043486585 0.0023759915 0.01977573 -0.0018415368 0.00982811 0.015790392 -0.00017873032 0.0036507896
0.011409532 0.009249877 -0.0144196525 -2.3024784e-05 -0.0029848495 0.001274642 0.017840967 0.006805652
0.0065840892 0.018925235 0.0064549698 0.011109514 0.019608807 3.521509e-20 3.177758e-20 4.5743883e-20
3.196619e-20 3.0278074e-20 4.4939062e-20 2.8544022e-20 2.8239852e-20 4.281774e-20 -1.516273e-14 -4.813111e-14
2.2040238e-14 -4.009335e-14 -7.61153e-14 -2.9455513e-14 -3.4267372e-14 -7.645313e-14 -2.041714e-14 -0.0026346233
0.0066527417 0.0012814068 -0.0020364353 0.002161853 -0.009806152 -0.0017692577 -0.0018868358 -0.017697196
0.0015106405 0.0060733515 0.0058261156 0.0128033925 -0.0058203554 0.006530374 0.0074906913 -0.0053682546
0.008926029 -1.01282e-40 4.8265e-41 -8.1557e-41 -1.5285e-41 -4.3265e-41 9.61e-43 -4.003e-41
-3.4157e-41 1.268e-41 0.024267675 0.014824953 0.0017703836 0.01100385 0.0074703186 -0.0037906813
0.009125865 0.012865852 0.0028683608 0.015109296 0.011206728 -0.009120045 0.010807717 0.014888675
0.01774238 0.020806381 0.026993085 0.02203782 -0.010683545 -0.018008936 -0.008691138 -0.00928261
00000000: 2ebc a538 1105 58bb 2c54 d73b b70f a73a
00000010: 9547 083c 02a1 5839 457e 443b 032d bb38
00000020: 67e1 823c dbbd 8abb e5f1 0cbc a68b 0ebb
00000030: 701b 7cbb 066e 20bc fbec 263c 5105 093a
00000040: 263e 4e3b e50f 553c cdda 91bc fa70 a6bc
00000050: e904 4cbc 583c 613a 0521 89bb 6db8 9abb
00000060: b1ff eebb 0ea1 8ebc a502 a13b b8bb 54bb
00000070: 8a99 dfbb 9e7b 6b3b e01e 413b fa41 bbbb
00000080: 9c72 d3bb b36d 09bc 9eb8 12bc 701d d93b
00000090: 7f1a 66bc a3bb a9bc bc2d 23bc a4a9 49bc
000000a0: 8d60 09bc bad7 3db9 5f68 113c c46d ceb9
000000b0: 514a 943c 37ab 0000 be8b 0080 7d23 0080
000000c0: daff 0000 1963 0000 6cdb 0080 c483 0080
000000d0: 6305 0100 d1c3 0080 15a5 0000 32ca 0080
000000e0: 2b6d 0080 f344 0000 9677 0080 3bb3 0080
000000f0: bfc8 0080 c130 0080 1cdd 0080 94d6 12bb
00000100: 006b 6ebc ffc8 d9bb 0b7e 1fbc aaea 5f3b
00000110: 8490 2dbc 64d8 093c 121a 46bb 32e2 c2bb
00000120: 94ed a8bb 145c 9c3b a2d3 643b 45b6 b13b
00000130: 500c c4ba 8782 0cbc 66ba 4c3b fac5 71bb
00000140: 385c 7f3c 556d d58e a50e 858e 00ef cf8e
00000150: 7301 b78e 7030 358e b65f b88e 44bb e18e
00000160: 829a 838e c3a9 f68e d883 503b def3 d93b
00000170: 3170 373c 44f2 1f3b 9353 c33b 8e77 1d3c
00000180: 455d 743b fb8e a73b 257d 173c 7c6a 69bb
00000190: 8af7 3d3b 6c92 8dbc d0fd 923b f562 493b
000001a0: 867f f7bb 42bb 19bc 8c1e 103a e6a2 b1bc
000001b0: 1d26 8f08 98c8 a408 adc7 1789 5391 0509
000001c0: 1351 f408 da19 1589 1580 dd88 87be 3688
000001d0: 6cd4 3409 17d5 353a a8ea dfba 576b 553c
000001e0: 0bc0 d9bb e144 e4bb c2fa 153c 2a4c edba
000001f0: 5934 45bb 5bfb 5c3b 255a 09bc 0ce1 a8bc
00000200: e915 d3bc 2f23 55bb 9da0 98bc afb8 693c
00000210: 9e8a 133c 9984 46bc 526f 88bc 0196 bc3b
00000220: 1f75 0e3b e68e cbbb 95f4 283b 5541 78bc
00000230: 2fb9 05bc 5705 873c 60ce 05bc 3bc8 29bb
00000240: 69ae 91bb 2c0d 50bc 6749 c83b 2b35 bebb
00000250: a043 29bb d703 233c c2b2 9fbb f46b 96bb
00000260: 20a1 6a3c 09c4 863c ee32 94bb d604 dabc
00000270: a8c0 d3bb ad03 21bc 7935 e7bb 765b 3b3b
00000280: 4f6a 0a3c d7bb 9fbb a8b9 463c 1d46 013c
00000290: c2bf 033c f6a2 2a3c 4bd4 aa3a f2ef 6e3c
000002a0: 317f 8e3b 86b6 1b3b b600 a23c b95f f1ba
000002b0: 1506 213c da5a 813c 8e69 3bb9 1642 6f3b
000002c0: 0cef 3a3c cc8c 173c 6840 6cbc 5925 c1b7
000002d0: 779d 43bb e311 a73a 3827 923c f201 df3b
000002e0: 58bf d73b 1809 9b3c 3684 d33b ae04 363c
000002f0: a6a2 a03c 6e4c 261f bd10 161f f604 581f
00000300: c1f4 161f f2fb 0e1f fe37 541f 9bcb 061f
00000310: e35b 051f 7933 4a1f e092 88a8 64c3 58a9
00000320: 5485 c628 7c90 34a9 7c65 aba9 e5a7 04a9
00000330: 9753 1aa9 3b28 aca9 b8e6 b7a8 a5a9 2cbb
00000340: 3eff d93b e1f4 a73a b775 05bb e0ad 0d3b
00000350: fca9 20bc 70e6 e7ba b44f f7ba b6f9 90bc
00000360: af00 c63a f702 c73b 00e9 be3b 52c5 513c
00000370: aeb8 bebb bffc d53b 7974 f53b 2fe8 afbb
00000380: 7b3e 123c 551a 0180 8b86 0000 59e3 0080
00000390: 9c2a 0080 9b78 0080 ae02 0000 966f 0080
000003a0: 375f 0080 5923 0000 01cd c63c 5ce4 723c
000003b0: 370c e83a 7e49 343c 93c9 f43b 146d 78bb
000003c0: a784 153c 4bcb 523c 1cfb 3b3b fb8c 773c
000003d0: 6d9c 373c 3e6c 15bc da12 313c a1ef 733c
000003e0: 7858 913c 2572 aa3c 9a20 dd3c a988 b43c
000003f0: 090a 2fbc 7a87 93bc 4665 0ebc 1716 18bc

e_conv2.bias f4 [32]
0.014517424 0.018502438 -3.3375036e-05 0.021961398 -0.00010683783 0.0423025 0.035966355 0.013986741
-0.018807108 -0.042689044 0.013824087 0.055600293 -0.044438396 -0.049517296 -4.4216927e-10 -0.005670538
-0.002606255 0.009669525 -0.014575341 -0.01496526 -9.301404e-06 0.039687973 -0.0011370598 0.013253318
-1.1608539e-26 -0.009370748 0.064980224 0.026660314 0.0017027623 -0.014909443 0.00903597 -3.5001634e-05
00000000: 7dda 6d3c 6d92 973c 2cfc 0bb8 64e8 b33c
00000010: 200e e0b8 6345 2d3d 7551 133d a528 653c
00000020: 5d11 9abc b5da 2ebd 6c7e 623c 22bd 633d
00000030: 0905 36bd a6d2 4abd cb15 f3af eccf b9bb
00000040: b4cd 2abb ed6c 1e3c 69cd 6ebc da30 75bc
00000050: 3a0d 1cb7 db8f 223d 6509 95ba 7224 593c
00000060: 49ee 6594 c487 19bc 5a14 853d bb66 da3c
00000070: 392f df3a bd46 74bc 9b0b 143c b8ce 12b8

e_conv3.weight f4 [32, 32, 3, 3]
-0.0057388525 -0.009266834 -0.00045531776 -0.0042303526 -0.006759628 -0.0012879737 -0.0074629458 -0.007652812
-0.00592089 -0.006904085 -0.004262136 -0.006912942 -0.0020530263 -0.00014262473 -0.0062117674 0.008898482
0.0065688198 -0.012694795 4.0489e-41 6.8176e-41 4.6254e-41 3.9416e-41 6.5748e-41 6.5679e-41
2.8767e-41 4.9776e-41 3.8467e-41 0.012366948 0.0025186588 -0.0022598505 0.0076051624 0.002011055
-0.001360223 0.006253181 0.0020865297 -0.0066110967 -4.861e-41 -2.1268e-41 -4.6341e-41 -6.7695e-41
-4.4196e-41 -3.6306e-41 -5.4312e-41 -5.8908e-41 -6.8137e-41 0.003921126 0.0034394152 0.0075045503
-0.00297242 -0.0031005342 -0.00058780937 -0.003413424 -0.0020186845 0.0070849666 0.006306621 0.00083325896
-0.006729551 0.004462832 -0.010127693 -0.0021857081 0.017880002 0.0033834884 -0.0013236478 0.0008702943
0.008435402 -0.0099166585 -0.0011466916 0.008007368 0.006225537 -0.0014425925 0.02256762 0.022762068
0.013210692 0.005207726 0.0077498467 -0.00035789976 -0.0048467084 -0.0023156132 -0.005741788 -0.006235851
-0.0026315723 -0.019018462 -0.008905658 -0.007496792 0.0017368279 0.0010348689 -0.0030994837 0.008915286
0.012611184 0.0027919202 -0.0005260021 -0.0018654801 -0.0013118386 -0.004784802 -0.005861093 -0.004860051
-0.0010181572 -0.0010909446 0.0004692561 0.01270087 0.020912113 0.028799659 0.008915418 0.016529152
0.025693187 1.0425367e-05 0.008799956 0.017563049 0.00074818375 -0.001457546 -0.0068684616 -0.003634157
-0.0066230767 -0.0021373928 -0.0057457304 0.0022944494 -0.00094221433 0.002863055 0.017802555 0.007905955
-0.0018925408 -0.0026872354 -0.0079657575 0.006188315 0.015358457 0.011053132 6.93e-41 8.3171e-41
-5.9705e-41 -9.564e-42 8.151e-42 -2.6228e-41 -6.0076e-41 -4.3135e-41 -6.5757e-41 -0.0038214421
-0.001200707 -0.0030347004 -0.0047929534 -0.0027809066 -0.00417573 -0.010356841 -0.008739671 -0.007443844
0.0016436658 0.0016486995 0.0015687109 0.0016173653 0.0016674801 0.0015860451 0.001621839 0.0016733562
0.0015907013 -0.038967904 -0.006877965 -0.0105750775 -0.02774062 0.00071371073 -0.005231249 -0.021177467
0.002495291 -0.006774333 0.001071238 0.008998442 0.0050944877 0.0010385662 0.007936293 0.005594341
0.0011848605 0.0067693247 0.0023813953 0.017500395 0.010206327 0.0093259085 -0.0008704249 0.001392152
0.00023307024 -0.0064082183 0.004475149 0.0028381613 8.51e-42 -3.659e-42 4.078e-42 -2.8504e-41
-7.147e-42 -8.136e-42 -9.878e-42 3.477e-42 5.2707e-41 -0.03749677 -0.011805363 -0.002333391
-0.013507802 -0.003062966 0.0014715057 -0.0217952 -0.008364599 0.0014755845 -0.048050515 -0.01875712
-0.014046713 -0.018023698 -0.00452963 -0.0022603562 -0.013278017 -0.0027288739 0.010161121 -0.015776042
-0.016896559 -0.023850093 -0.005205139 -0.00976703 -0.021953788 -0.0038371708 -0.0017179194 -0.017930387
7.0861e-41 -2.5024e-41 7.7614e-41 -8.3758e-41 -6.9245e-41 -8.3653e-41 1.3636e-41 -7.4316e-41
-9.6968e-41 -0.015714109 -0.014126941 -0.014493331 -0.020062635 -0.017840335 -0.0199431 -0.054301642
-0.039218917 -0.045804083 0.058699757 0.02141947 0.040586196 0.021978581 -0.000613193 0.02053814
0.040063787 0.01597606 0.048203804 0.013875842 0.018847385 0.014373244 0.01287096 0.008237035
0.00908527 0.0043094745 0.004529399 0.0043469965 -0.015275423 -0.011819335 -0.0068936367 -0.0066776737
00000000: fc0c bcbb ebd3 17bc b7b7 eeb9 c59e 8abb
00000010: df7f ddbb 3ad1 a8ba ba8b f4bb 71c4 fabb
00000020: 0604 c2bb aa3b e2bb 63a9 8bbb f685 e2bb
00000030: 118c 06bb 898d 15b9 158c cbbb f0ca 113c
00000040: 413f d73b d4fd 4fbc de70 0000 0cbe 0000
00000050: f080 0000 e06d 0000 47b7 0000 16b7 0000
00000060: 3150 0000 c18a 0000 3b6b 0000 bd9e 4a3c
00000070: 1510 253b 001a 14bb ba34 f93b e7cb 033b
00000080: 8349 b2ba 7ce7 cc3b 29be 083b e6a1 d8bb
00000090: 8187 0080 493b 0080 2e81 0080 b5bc 0080
000000a0: 337b 0080 3565 0080 6697 0080 36a4 0080
000000b0: f0bd 0080 ca7c 803b d067 613b bbe8 f53b
000000c0: efcc 42bb 5532 4bbb 3817 1aba c0b3 5fbb
000000d0: e84b 04bb 0229 e83b c5a7 ce3b 106f 5a3a
000000e0: 9183 dcbb f33c 923b a0ee 25bc 193e 0fbb
000000f0: 1579 923c 84bd 5d3b 407e adba 7624 643a
00000100: a434 0a3c 7b79 22bc 964c 96ba 5631 033c
00000110: 97ff cb3b 5f15 bdba bbdf b83c 8477 ba3c
00000120: a971 583c 92a5 aa3b 6df2 fd3b 7ea4 bbb9
00000130: 23d1 9ebb 8bc1 17bb 9c25 bcbb 1c56 ccbb
00000140: 7576 2cbb 9bcc 9bbc 09e9 11bc a6a7 f5bb
00000150: 46a6 e33a 70a4 873a b520 4bbb 6b11 123c
00000160: 249f 4e3c a6f8 363b 67e3 09ba 2083 f4ba
00000170: 00f2 abba d4c9 9cbb 690e c0bb 1041 9fbb
00000180: b073 85ba 07fe 8eba 7d06 f639 4f17 503c
00000190: e14f ab3c 43ed eb3c f911 123c 2568 873c
000001a0: 857a d23c 9ce8 2e37 b12d 103c 62e0 8f3c
000001b0: c321 443a 210b bfba d510 e1bb 092b 6ebb
000001c0: 6506 d9bb 8013 0cbb ae46 bcbb 795e 163b
000001d0: effe 76ba 18a2 3b3b aad6 913c fb87 013c
000001e0: 220f f8ba 541c 30bb cf82 02bc 59c7 ca3b
000001f0: 0aa2 7b3c 3218 353c 2ec1 0000 d9e7 0000
00000200: 6fa6 0080 a91a 0080 b916 0000 1d49 0080
00000210: 78a7 0080 3e78 0080 4eb7 0080 2971 7abb
00000220: 0b61 9dba d3e1 46bb 350e 9dbb df3f 36bb
00000230: 90d4 88bb bdaf 29bc d630 0fbc 7deb f3bb
00000240: 4670 d73a 2d19 d83a 349d cd3a c6fd d33a
00000250: 598f da3a d8e2 cf3a e393 d43a 8454 db3a
00000260: 147f d03a cf9c 1fbd 8d60 e1bb 1743 2dbc
00000270: 4c40 e3bc 5118 3b3a e66a abbb 5e7c adbc
00000280: 0988 233b 39fb ddbb c868 8c3a 346e 133c
00000290: a9ef a63b 8020 883a 3a07 023c bc50 b73b
000002a0: 524d 9b3a 36d1 dd3b 2f11 1c3b fd5c 8f3c
000002b0: 7038 273c b2cb 183c 3a2d 64ba df78 b63a
000002c0: 5164 7439 08fc d1bb 45a4 923b 7200 3a3b
000002d0: b917 0000 330a 0080 5e0b 0000 754f 0080
000002e0: ec13 0080 ae16 0080 891b 0080 b109 0000
000002f0: ed92 0000 3796 19bd 486b 41bc ceeb 18bb
00000300: d44f 5dbc 0bbc 48bb 8adf c03a d98b b2bc
00000310: ac0b 09bc 6668 c13a 9ed0 44bd 88a8 99bc
00000320: 2f24 66bc 6fa6 93bc 4a6d 94bb 7c22 14bb
00000330: 0a8c 59bc e8d6 32bb d57a 263c c23c 81bc
00000340: a76a 8abc 4561 c3bc df8f aabb e505 20bc
00000350: 6ed8 b3bc 0b79 7bbb cf2b e1ba bfe2 92bc
00000360: 88c5 0000 c245 0080 5bd8 0000 7ce9 0080
00000370: 07c1 0080 31e9 0080 0326 0000 2acf 0080
00000380: 4f0e 0180 e0ba 80bc af74 67bc 7075 6dbc
00000390: 655a a4bc e525 92bc b65f a3bc 666b 5ebd
000003a0: 04a4 20bd 109d 3bbd 286f 703d e277 af3c
000003b0: b63d 263d 6d0c b43c b0be 20ba 9a3f a83c
000003c0: ed19 243d 3ae0 823c 5a71 453d 8057 633c
000003d0: d565 9a3c c17d 6b3c b8e0 523c a1f4 063c
000003e0: 62da 143c 7e36 8d3b 5a6b 943b 4071 8e3b
000003f0: c545 7abc e2a5 41bc 04e4 e1bb 63d0 dabb

e_conv3.bias f4 [32]
0.033082545 0.012958132 0.04857455 0.006805949 0.022228573 -0.00921798 0.022417577 0.019137034
0.0067737377 -0.0075870566 -0.012911412 0.006167793 0.024591813 0.023524199 0.012236838 0.028605947
-4.9592007e-05 -0.0016446456 0.020783216 0.0067402422 -0.0057591028 -0.0017783233 -0.007706635 -3.0276235e-09
-0.008760637 -3.054221e-13 0.019422352 0.05024192 -0.015091208 0.00822545 0.050824195 -2.9603878e-15
00000000: 9081 073d 584e 543c 1bf6 463d 7004 df3b
00000010: b218 b63c 0307 17bc 11a5 b73c 45c5 9c3c
00000020: 3bf6 dd3b d89c f8bb 638a 53bc 331b ca3b
00000030: c574 c93c d2b5 c03c 057d 483c 0557 ea3c
00000040: 0301 50b8 2691 d7ba 9041 aa3c 40dd dc3b
00000050: dbb6 bcbb a116 e9ba f187 fcbb 840e 50b1
00000060: c688 0fbc f7ef abaa a01b 9f3c 79ca 4d3d
00000070: 1d41 77bc 0ac4 063c 082d 503d 8451 55a7

e_conv4.weight f4 [32, 32, 3, 3]
-1.8692e-41 -3.9427e-41 -2.9132e-41 1.1241e-41 5.3388e-41 -4.27e-41 -1.751e-41 1.2574e-41
-3.98e-43 -1.9458e-41 -7.609e-42 2.6253e-41 -2.0954e-41 -4.8846e-41 -1.6184e-41 -6.3385e-41
5.809e-41 -4.3369e-41 1.7031e-41 -6.1053e-41 1.3786e-41 -6.904e-42 -2.1831e-41 2.1848e-41
-5.3632e-41 6.8689e-41 -6.6581e-41 -2.9838897e-19 -2.934291e-19 -2.2650733e-19 -3.2337437e-19 -3.2312043e-19
-2.6969164e-19 -2.7613936e-19 -2.7663298e-19 -2.262006e-19 -3.4926e-41 2.3966e-41 -2.8285e-41 7.0021e-41
-1.3733e-41 -5.2473e-41 -4.4544e-41 7.0124e-41 -7.2193e-41 -2.3424352e-27 -2.3608051e-27 -1.9098165e-27
-2.3891146e-27 -2.563488e-27 -2.1454623e-27 -1.8097448e-27 -2.0053474e-27 -1.5887016e-27 -4.941e-41 -6.5874e-41
-1.3736e-41 -2.189e-42 8.034e-42 -6.0448e-41 -6.8647e-41 -4.1746e-41 -8.317e-42 -9.968524e-31
-4.599886e-30 -1.0262604e-29 -2.1619734e-31 -1.5119509e-30 -4.2462633e-30 -8.6065077e-32 -4.9487146e-31 -2.058598e-30
-2.493222e-24 -2.5339439e-24 -1.534208e-24 -3.991657e-24 -3.579905e-24 -2.3177187e-24 -3.6795514e-24 -3.3521137e-24
-2.1819861e-24 -4.816558e-38 -4.9694444e-38 1.1862303e-38 -2.2729051e-38 -1.3514826e-38 8.29149e-39 -1.870265e-38
1.5514301e-38 7.4271823e-38 4.4437934e-35 5.441407e-35 3.2633637e-35 7.0427356e-35 7.7654626e-35 5.800314e-35
5.452454e-35 5.974325e-35 4.5771167e-35 6.3894e-41 -7.5548e-41 -6.4144e-41 -2.5574e-41 3.2433e-41
2.9255e-41 -2.836e-41 -4.85e-41 5.9657e-41 -7.2744444e-21 -8.2612895e-21 -7.256253e-21 -1.0851613e-20
-1.0586367e-20 -8.654698e-21 -1.025295e-20 -9.9517655e-21 -7.9774995e-21 2.576e-41 -6.8275e-41 6.1137e-41
-7.405e-41 2.068e-41 -2.0682e-41 -7.351e-42 -8.946e-42 -5.3764e-41 -5.69e-43 -5.635e-42
6.9548e-41 5.6063e-41 7.4849e-41 -7.7167e-41 -6.2544e-41 4.6536e-41 1.4985e-41 -1.8183441e-22
-1.6945911e-22 -1.0257458e-22 -2.756901e-22 -2.3719078e-22 -1.4696809e-22 -2.591679e-22 -2.2318627e-22 -1.3147464e-22
-1.758e-40 -1.72e-40 -2.1419e-41 2.8682e-41 -1.073e-40 1.87495e-40 2.3746e-41 6.4849e-41
7.707e-41 1.9746e-41 4.612e-42 3.5604e-41 1.2368e-41 6.9353e-41 3.5541e-41 -5.5867e-41
6.6881e-41 6.9289e-41 -1.9597658e-38 -1.1088185e-38 -2.03391e-39 -3.0101648e-38 -2.0377672e-38 -5.44577e-39
-2.0483208e-38 -1.4777044e-38 -3.393588e-39 -8.8104127e-29 -2.0926567e-28 -4.266037e-28 -5.891131e-29 -1.4214478e-28
-3.0388197e-28 -3.5477462e-29 -6.8459016e-29 -1.6609321e-28 -6.1806e-41 -6.2258e-41 -5.5968e-41 -5.5325e-41
-5.7078e-41 -5.9646e-41 -4.8704e-41 -5.6683e-41 -2.0931e-41 -1.8944803e-29 -5.923892e-29 -1.0296302e-28
-5.3248717e-30 -2.42261e-29 -5.2990524e-29 -2.6131046e-30 -1.1967072e-29 -3.6804205e-29 3.0764e-41 1.08e-41
2.9708e-41 4.294e-42 8.212e-42 1.6074e-41 -2.0896e-41 -4.1e-43 9.721e-42 2.1834e-41
1.47841e-40 4.993e-41 -9.8265e-41 -6.7384e-41 -6.758e-42 5.3716e-41 -3.312e-41 -4.2665e-41
2.176e-42 -4.277e-41 -6.8772e-41 -1.0782e-41 -3.0164e-41 -4.4374e-41 3.142e-41 -4.818e-42
-2.6326e-41 1.89165e-40 1.9214e-40 1.58791e-40 1.32543e-40 2.00637e-40 1.8721e-40 1.88742e-40
-1.84714e-40 -4.9211e-41 -6.7050513e-31 -6.3350263e-31 -2.947998e-31 -1.3525993e-30 -1.1089349e-30 -5.764347e-31
-1.2934105e-30 -1.0075129e-30 -4.897635e-31 -7.882e-42 -6.6714e-41 -5.3762e-41 2.9129e-41 9.36e-43
-1.875e-41 -1.512e-41 3.7555e-41 -7.5474e-41 -3.794532e-24 -7.343893e-24 -5.9222778e-24 -7.13249e-24
00000000: 1b34 0080 e86d 0080 3551 0080 561f 0000
00000010: d394 0000 0877 0080 d030 0080 0d23 0000
00000020: 1c01 0080 3e36 0080 3615 0080 2f49 0000
00000030: 693a 0080 2a88 0080 1d2d 0080 b1b0 0080
00000040: eea1 0000 e578 0080 7a2f 0000 31aa 0080
00000050: 6e26 0000 3f13 0080 db3c 0080 e73c 0000
00000060: 8195 0080 7abf 0000 9ab9 0080 4423 b0a0
00000070: c035 ada0 d2b4 85a0 f4e2 bea0 94bc bea0
00000080: a632 9fa0 0001 a3a0 984b a3a0 7886 85a0
00000090: 5c61 0080 cf42 0000 d94e 0080 31c3 0000
000000a0: 4826 0080 4692 0080 2c7c 0080 7ac3 0000
000000b0: 3fc9 0080 3b96 3993 d10a 3b93 ae4f 1793
000000c0: 0049 3d93 b719 4b93 25fb 2993 fc61 0f93
000000d0: 47e1 1e93 65bd fb92 bc89 0080 a1b7 0080
000000e0: 4a26 0080 1a06 0080 6516 0000 81a8 0080
000000f0: 5cbf 0080 5f74 0080 2f17 0080 a1bf a18d
00000100: f297 ba8e 7d26 508f f251 8c8c fc53 f58d
00000110: b83f ac8e 0e70 df8b 5098 208d 6803 278e
00000120: 59e7 4098 ee0d 4498 3e68 ed97 756b 9a98
00000130: a97d 8a98 2653 3398 8358 8e98 baad 8198
00000140: b0d2 2898 831e 8381 f947 8781 462b 8100
00000150: 597f f780 d629 9380 4d49 5a00 61a7 cb80
00000160: 8fef a800 e82f ca01 c845 6c06 4ca8 9006
00000170: 9b82 2d06 603a bb06 0071 ce06 e432 9a06
00000180: 7bf3 9006 26d3 9e06 7c5c 7306 1cb2 0000
00000190: 99d2 0080 cfb2 0080 4a47 0080 695a 0000
000001a0: 8d51 0000 0e4f 0080 3387 0080 4da6 0000
000001b0: 0e69 099e 250d 1c9e 1611 099e 2efb 4c9e
000001c0: 88f8 479e 8d7b 239e 39ac 419e c9fb 3b9e
000001d0: d2b0 169e cf47 0000 53be 0080 6daa 0000
000001e0: 6cce 0080 a639 0000 a739 0080 7e14 0080
000001f0: f018 0080 df95 0080 9601 0080 b50f 0080
00000200: dfc1 0000 489c 0000 a6d0 0000 1cd7 0080
00000210: 59ae 0080 b981 0000 c629 0000 06d3 5b9b
00000220: 0edd 4c9b 9702 f89a faa4 a69b 7f5f 8f9b
00000230: 6cac 319b 4aa8 9c9b 67e8 869b 6ef1 1e9b
00000240: 0fea 0180 77df 0180 b53b 0080 f44f 0000
00000250: 1c2b 0180 a90a 0200 3242 0000 c6b4 0000
00000260: d7d6 0000 0b37 0000 db0c 0000 4063 0000
00000270: 7a22 0000 54c1 0000 1363 0000 bc9b 0080
00000280: 70ba 0000 26c1 0000 4c66 d580 59bd 7880
00000290: b725 1680 93e3 2381 a9e4 dd80 974c 3b80
000002a0: da0a df80 63e8 a080 f1f3 2480 d95e df90
000002b0: 4ca3 8491 3432 0792 a05b 9590 9e30 3491
000002c0: ab9b c091 61e4 3390 7190 ad90 548c 5291
000002d0: 4aac 0080 8dad 0080 049c 0080 399a 0080
000002e0: 1c9f 0080 45a6 0080 c487 0080 029e 0080
000002f0: 593a 0080 851f c08f 4230 9690 6985 0291
00000300: a100 d88e 8dae f58f d158 8690 0f00 548e
00000310: 97b8 728f 979e 3a90 c255 0000 1b1e 0000
00000320: d052 0000 f80b 0000 e416 0000 cf2c 0000
00000330: 403a 0080 2501 0080 191b 0000 dd3c 0000
00000340: 1f9c 0100 2f8b 0000 ec11 0180 d7bb 0080
00000350: d712 0080 bd95 0000 535c 0080 ef76 0080
00000360: 1106 0000 3a77 0080 b5bf 0080 0e1e 0080
00000370: 1654 0080 b27b 0080 9657 0000 6e0d 0080
00000380: 6349 0080 510f 0200 9c17 0200 a5ba 0100
00000390: 7a71 0100 4b2f 0200 de09 0200 230e 0200
000003a0: e802 0280 2e89 0080 6397 598d 5795 4d8d
000003b0: 0556 bf8c c778 db8d 5bef b38d 5210 3b8d
000003c0: 2cde d18d 737a a38d f6ef 1e8d f915 0080
000003d0: f9b9 0080 de95 0080 3351 0000 9c02 0000
000003e0: 4434 0080 262a 0080 b068 0000 64d2 0080
000003f0: 3acb 9298 320d 0e99 661b e598 61f6 0999

e_conv4.bias f4 [32]
-7.180588e-05 0.0021448089 0.0176769 0.016347645 0.031993356 -2.4084361e-08 -2.2706219e-17 -2.0552901e-05
0.006263834 -4.607675e-31 0.008864349 0.03031501 0.015346625 0.006696037 -0.0012132333 0.0028811528
0.0018418473 -5.3161253e-10 0.0063212425 0.014069492 -1.7354202e-20 0.0014163286 0.02275266 0.007946508
0.028834373 -0.0024974237 0.01122768 -1.0519366e-17 0.021840049 0.011052985 -2.5888526e-11 6.195714e-05
00000000: 7d96 96b8 ec8f 0c3b 25cf 903c 7feb 853c
00000010: 770b 033d 12e2 ceb2 8b6d d1a3 0569 acb7
00000020: d940 cd3b 1187 158d c63b 113c 2f57 f83c
00000030: 6970 7b3c 6e6a db3b 5b05 9fba b9d1 3c3b
00000040: 246a f13a e820 12b0 6d22 cf3b ba83 663c
00000050: e3e7 a39e 1aa4 b93a c963 ba3c 1232 023c
00000060: 1036 ec3c d1ab 23bb 4ef4 373c 4d0c 42a3
00000070: e7e9 b23c 9417 353c c7b7 e3ad fcee 8138

e_conv5.weight f4 [32, 64, 3, 3]
-0.000995539 0.00029152934 -0.0017633691 0.00024091118 0.0013659754 -0.0020157555 0.0019150028 0.0013462179
-0.0017422343 -0.007474608 -0.005970333 0.0037930335 -0.00059326 -0.00652922 0.004118945 0.010891429
-0.0011207723 -0.00028257814 -0.00017471222 0.0031626641 0.0017015034 6.922672e-05 0.004569833 0.0021634216
0.00018274432 0.0014547146 0.0042093787 0.0014182017 -0.0074934713 -0.006124352 0.004615912 -0.0035459031
-0.0019893744 0.008717036 0.0010127069 -0.0017521941 -0.0043047196 0.005893155 0.005191582 -0.0075563253
0.0026060247 0.003760824 -0.007079302 0.00017403108 0.003880889 0.0042356495 -0.0042150435 -0.006605069
0.0019698006 -0.0032208283 -0.00031235893 0.0032477016 0.00019724244 0.00065861683 0.0018947216 0.0017682642
-0.0009290311 -0.0035435734 -0.00077989994 0.0026344138 -0.0026289923 -0.0025220653 0.0027937468 -0.00012470252
-0.002568438 0.00035897995 -0.0008537496 -0.0005751727 0.0023389626 0.0031821483 -0.00020054946 0.0018894366
0.0017154374 -0.0010099472 -0.0016333442 0.0063366042 0.0029833452 0.0004179032 0.009186562 0.0048793773
-0.00025760676 0.0020295763 0.01015899 -0.0033102902 -0.00021953208 0.015282555 0.0012614761 0.0043490953
0.010352913 0.0003665702 -0.0053839837 -0.0040158518 0.0029084375 -0.0018827423 -0.0014031165 0.0039418465
0.0041496423 0.0007754154 -0.0007642682 0.002665304 -0.0076136766 -0.000735706 0.00042857433 -0.009680524
0.0008268833 -0.00014251824 -0.0032682256 0.0030803266 0.0062179 0.0014237694 -0.0014974317 0.006256676
0.0063980385 0.005379377 0.009647826 0.0070316023 0.004894969 -0.00016495082 0.0026389507 0.005940799
-0.0041063535 0.00023062457 0.0056846915 -0.0036280465 -0.0009818956 0.004168292 -0.0019435891 0.003067587
0.0050235367 -0.0058940086 0.0005207535 0.0048767817 -0.0055650026 -0.0009971622 0.002695439 0.004173948
-0.0020146663 -0.004464701 0.0053546643 0.00012543608 -0.0009732673 0.005623296 0.0011610548 -0.0010409988
-7.5711e-41 -3.1152e-41 -4.0056e-41 -3.5875e-41 -1.8501e-41 -5.1803e-41 8.394e-42 -1.2299e-41
8.8146e-41 0.0014197731 0.008236181 0.009650475 0.008874928 0.021266973 0.011322935 0.015407218
0.017991493 0.009533822 -0.00071486237 -0.006125943 -0.0032382645 0.00026802265 -0.0056883683 -0.0021306246
0.00049397594 -0.0026509599 -0.0025643413 0.0025417067 0.0019579958 -0.00017186707 0.0025262802 0.004407434
0.0031051072 0.008715288 0.005589898 0.0023224405 -0.006775021 -0.00705297 0.0010914967 -0.00551569
-0.008604533 -5.5672084e-05 -0.0027503 -0.006598226 -0.0045184665 0.004906243 0.0032905396 0.00424902
0.0036142373 0.0038875823 0.00600883 0.007199728 0.0040402333 0.005900011 0.011753422 0.0027079952
-0.0067407265 0.0078573385 0.007645672 0.0022372224 0.005618298 0.008802587 0.009226735 1.06501e-40
9.7152e-41 1.503e-41 -3.7993e-41 5.8754e-41 8.1263e-41 4.3952e-41 -3.0218e-41 3.0833e-41
0.00043289503 0.00021378568 -0.0023993168 -0.0009830267 0.004039426 0.0024300895 0.00048069155 0.0033399921
0.0037149605 1.68178e-40 -1.60793e-40 -1.35255e-40 1.29902e-40 -8.6749e-41 1.37427e-40 2.55e-41
1.04729e-40 1.28959e-40 0.0017175821 -0.0017134636 -0.0037567674 0.0019415596 -0.002199249 -0.0015063349
0.0020979822 -0.0009039472 -0.0023852726 0.0006972838 0.0059900656 0.011789955 -0.004520662 0.0020587393
0.010884521 -0.005724226 -0.0009845968 0.008289632 -0.012821804 -0.0034181587 0.008432093 -0.0031575258
00000000: bf7c 82ba 68d8 9839 d920 e7ba 1a9d 7c39
00000010: 870a b33a c41a 04bb d500 fb3a 9473 b03a
00000020: af5b e4ba 8eed f4bb c8a2 c3bb 8b94 783b
00000030: 0185 1bba 11f3 d5bb 37f8 863b f771 323c
00000040: e1e6 92ba ff26 94b9 f432 37b9 b344 4f3b
00000050: fb04 df3a d02d 9138 8abe 953b 31c8 0d3b
00000060: 0e9f 3f39 1fac be3a d4ee 893b f4e2 b93a
00000070: cb8b f5bb caae c8bb 1441 973b 6262 68bb
00000080: 2a60 02bb e6d1 0e3c cebc 843a e1a9 e5ba
00000090: 9b0e 8dbb 5e1b c13b 251e aa3b 0d9b f7bb
000000a0: d7c9 2a3b 2878 763b 7df9 e7bb 1d7c 3639
000000b0: 8356 7e3b 34cb 8a3b 591e 8abb 566f d8bb
000000c0: c517 013b 8814 53bb 1bc4 a3b9 64d7 543b
000000d0: ddd2 4e39 07a7 2c3a 4f58 f83a 1ac5 e73a
000000e0: 398a 73ba 4c3b 68bb 3372 4cba 21a6 2c3b
000000f0: 2c4b 2cbb 3c49 25bb 4b17 373b 94c2 02b9
00000100: 3d53 28bb 7935 bc39 2ace 5fba 30c7 16ba
00000110: 4849 193b 978b 503b 964a 52b9 f9a6 f73a
00000120: 87d8 e03a 3460 84ba f015 d6ba 4aa3 cf3b
00000130: 3a84 433b 051a db39 3c83 163c 2fe3 9f3b
00000140: 650f 87b9 a402 053b e471 263c 74f1 58bb
00000150: 3232 66b9 ae63 7a3c 1d58 a53a db82 8e3b
00000160: 449f 293c 3830 c039 216c b0bb 6897 83bb
00000170: 7c9b 3e3b 59c6 f6ba c7e8 b7ba 9b2a 813b
00000180: b9f9 873b 3f45 4b3a 2c59 48ba 62ac 2e3b
00000190: 267c f9bb 65dc 40ba 46b2 e039 0f9b 1ebc
000001a0: 33c3 583a f370 15b9 ba2f 56bb 4edf 493b
000001b0: 87bf cb3b c69d ba3a 7845 c4ba cd04 cd3b
000001c0: a3a6 d13b 7c45 b03b ea11 1e3c 5b69 e63b
000001d0: fa65 a03b a6f6 2cb9 3ff2 2c3b 09ab c23b
000001e0: 978e 86bb d0d3 7139 a646 ba3b 85c4 6dbb
000001f0: f3b2 80ba 2b96 883b 07c0 feba 9209 493b
00000200: 7b9c a43b 8722 c1bb 2d83 083a 69cd 9f3b
00000210: a05a b6bb 36b3 82ba f6a5 303b 9dc5 883b
00000220: 7e08 04bb a04c 92bb 2e76 af3b 7e87 0339
00000230: dd22 7fba a043 b83b 892e 983a 2072 88ba
00000240: 0dd3 0080 d756 0080 a96f 0080 0164 0080
00000250: 9333 0080 6890 0080 6617 0000 4922 0080
00000260: b7f5 0000 ae17 ba3a 0cf1 063c 071d 1e3c
00000270: 2568 113c 1338 ae3c d583 393c 8e6e 7c3c
00000280: e562 933c bf33 1c3c 9a65 3bba 22bc c8bb
00000290: 1039 54bb 6485 8c39 7e65 babb f3a1 0bbb
000002a0: 2a7e 013a babb 2dbb 820e 28bb c392 263b
000002b0: b851 003b 3737 34b9 f38f 253b 3c6c 903b
000002c0: 0e7f 4b3b 91ca 0e3c 772b b73b 1634 183b
000002d0: ff00 debb 9a1c e7bb 8d10 8f3a f6bc b4bb
000002e0: 07fa 0cbc 7281 69b8 613e 34bb ee35 d8bb
000002f0: a50f 94bb 8dc4 a03b 18a6 573b 5d3b 8b3b
00000300: d7dc 6c3b cfc6 7e3b b8e5 c43b b2eb eb3b
00000310: ef63 843b e154 c13b 6d91 403c 9f78 313b
00000320: 50e1 dcbb 11bc 003c 8c88 fa3b 5d9e 123b
00000330: b319 b83b ba38 103c bb2b 173c e228 0100
00000340: d20e 0100 e629 0000 e969 0080 c8a3 0000
00000350: 87e2 0000 857a 0000 3c54 0080 f355 0000
00000360: 30f6 e239 a82b 6039 db3d 1dbb e7d8 80ba
00000370: 295d 843b 2342 1f3b 5405 fc39 c5e3 5a3b
00000380: b276 733b d0d4 0100 3ac0 0180 0979 0180
00000390: 1d6a 0100 d2f1 0080 177f 0100 1547 0000
000003a0: f123 0100 7c67 0100 7e20 e13a 4c96 e0ba
000003b0: 1934 76bb ee7b fe3a 4721 10bb 3670 c5ba
000003c0: 4d7e 093b dff6 6cba 3c52 1cbb ecc9 363a
000003d0: 5048 c43b a82a 413c 1022 94bb eaeb 063b
000003e0: fd54 323c 4a92 bbbb 960d 81ba 3dd1 073c
000003f0: 8b12 52bc 3003 60bb c326 0a3c 7eee 4ebb

e_conv5.bias f4 [32]
0.02485909 0.008164699 0.020675752 0.0035081422 -0.0008329994 0.023121066 0.002422135 -0.008906606
-1.5025545e-38 -2.2947773e-08 0.01775154 0.016842412 0.00035784204 0.02986395 2.2249184e-35 0.01787218
0.021626242 -1.936421e-09 0.0038863146 1.1322416e-09 0.0077111833 -1.3110011e-13 -1.1153286e-09 0.019603668
0.020628626 0.008743008 0.02975713 -0.00040438015 0.0085383225 0.02018492 0.0016536361 0.027938005
00000000: 4aa5 cb3c 3bc5 053c 3260 a93c dce8 653b
00000010: a55d 5aba 6468 bd3c afbc 1e3b 03ed 11bc
00000020: 1b9d a380 b01e c5b2 ad6b 913c 19f9 893c
00000030: bf9c bb39 3ea5 f43c 0a98 ec05 ae68 923c
00000040: 8429 b13c e111 05b1 8ab1 7e3b 369d 9b30
00000050: 18ae fc3b 099b 13aa 234a 99b0 df97 a03c
00000060: 5dfd a83c d53e 0f3c 3ac5 f33c fc02 d4b9
00000070: 52e4 0b3c d85a a53c d2be d83a 3ede e43c

e_conv6.weight f4 [32, 64, 3, 3]
-0.009763814 0.0026193114 -0.0041313726 -0.0068843625 -0.0035770019 0.005728734 0.00056872406 -0.0012190366
0.0045546046 0.0008868655 -0.0017246988 -0.00061848963 -0.011440168 0.011985532 -0.0030792183 -0.0016453179
0.016064007 0.0026097759 -5.7991e-41 4.1787e-41 -5.9985e-41 -2.4712e-41 -2.7146e-41 -3.1294e-41
-2.8655e-41 -3.9215e-41 -3.3076e-41 0.0075072497 0.0034867204 -0.00067298854 0.0036028172 0.0075535276
-0.00017046259 0.0021566148 0.0010808419 0.0029120687 2.563e-42 1.8131e-41 -8.764e-42 3.0843e-41
-2.9754e-41 -1.6224e-41 -2.557e-42 4.2926e-41 3.1987e-41 0.0076342043 0.0068572857 -0.0022876814
0.006683306 0.004956522 -0.0007347011 -0.0026055756 -0.0024178259 -0.009460921 -0.013633251 0.00043161103
-0.005972731 0.0067555117 -0.01529441 -0.01092384 0.0072818543 0.013681428 -0.0026809894 -0.0084005995
-0.008175161 0.0039255065 0.020216705 0.015141259 0.0001159099 0.01288181 0.016101412 0.008627285
0.0019309298 0.0036708324 0.00652138 0.004264269 0.0062527824 0.010438212 0.0051244567 0.012251555
0.016547779 0.0063528586 -0.017903894 -0.026812855 -0.0022970329 0.029236766 -0.0030495597 0.024659969
0.019643465 -0.0038532761 -0.016883375 -0.01743536 -0.015835406 -0.024271714 -0.024856037 -0.022328703
-0.020094424 -0.025010947 -0.020947076 0.020587148 0.028448015 0.027048066 0.00898013 0.019115698
0.019614683 -4.2622755e-06 0.012227581 0.01524873 -0.00085865805 0.0012452473 -0.0042104665 0.010763882
0.0033468995 -0.0038010855 0.004976288 0.014150634 -0.0013857046 -0.0033484292 0.0045065987 -0.006107446
-0.0001353729 0.0013818191 -0.019159537 0.013344069 0.0021361697 -0.005532911 6.9146e-41 -3.4382e-41
-4.115e-41 7.5983e-41 -4.9757e-41 -1.526e-42 7.825e-41 -6.9345e-41 -4.1698e-41 0.012384524
0.014478562 0.013826986 0.023055637 0.025566258 0.023827463 0.018392503 0.026169745 0.021284664
0.0025099288 0.0024558522 0.0024151485 0.0025899436 0.002511078 0.0024471614 0.0024826159 0.002437763
0.002403718 -0.0049263025 -0.004603286 -0.0013814075 -0.007667595 -0.006407909 -0.004386426 -0.009864382
-0.009062341 -0.008375057 0.0076931072 0.008442533 0.006858286 0.013626589 0.013565726 0.009885749
0.004059651 0.011596268 0.009502806 0.0068499777 -0.0016525163 -0.007772868 0.0040541207 0.0028923706
-0.002138731 -0.0028618213 -0.0011195078 -0.005080794 2.8438e-41 7.045e-41 3.7518e-41 9.621e-42
2.549e-42 3.6243e-41 6.773e-41 3.614e-41 -4.5699e-41 0.001060831 0.002747653 -0.0014978527
-0.000642679 0.00081104215 0.0059239212 0.000103924096 -0.0004128089 0.006224758 -0.018026376 -0.008991688
-0.0069071194 -0.019290015 -0.019718118 -0.011077265 -0.013253695 -0.017450264 -0.011037822 -0.009875136
-0.009592695 0.0022622896 0.01606429 -0.0047336626 0.010867526 0.015173518 0.016034646 0.0045926003
1.16549e-40 1.15691e-40 -1.17142e-40 -2.5143e-41 -1.00046e-40 1.13432e-40 -7.128e-41 4.6723e-41
1.09272e-40 -0.010653096 -0.008356444 -0.0067668026 -0.013841196 -0.0143876895 -0.017005062 -0.007848109
-0.007180851 0.002507924 0.007510936 0.011968935 0.0104842475 0.021048551 0.027515719 0.02741829
0.01628864 0.027438117 0.020950362 -0.0032314206 0.0075028134 0.0036249268 0.0052678557 0.017600834
0.0010572057 -0.003602423 0.057632834 0.020582385 -0.004932766 -0.0077309413 0.005651653 -0.0018373139
00000000: 67f8 1fbc c1a8 2b3b 7760 87bb 3896 e1bb
00000010: 226c 6abb 1bb8 bb3b 6d16 153a 15c8 9fba
00000020: cb3e 953b 897c 683a 4a0f e2ba 2322 22ba
00000030: 8b6f 3bbc f75e 443c b6cc 49bb b5a7 d7ba
00000040: aa98 833c c608 2b3b a8a1 0080 7c74 0000
00000050: 37a7 0080 e344 0080 ac4b 0080 3c57 0080
00000060: e14f 0080 516d 0080 345c 0080 60ff f53b
00000070: 7681 643b 7f6b 30ba 3e1d 6c3b 9583 f73b
00000080: 34be 32b9 fe55 0d3b 09ab 8d3a 68d8 3e3b
00000090: 2507 0000 8b32 0000 6e18 0080 fa55 0000
000000a0: f152 0080 3a2d 0080 2107 0080 a977 0000
000000b0: 2b59 0000 5928 fa3b 15b3 e03b edec 15bb
000000c0: a2ff da3b 526a a23b f598 40ba 4ec2 2abb
000000d0: 6374 1ebb fb01 1bbc 005e 5fbc da49 e239
000000e0: e6b6 c3bb 575d dd3b 6895 7abc e8f9 32bc
000000f0: 9f9c ee3b 1128 603c 8ab3 2fbb aba2 09bc
00000100: 1cf1 05bc 89a1 803b 819d a53c 0b13 783c
00000110: a714 f338 3a0e 533c 1ce7 833c 7559 0d3c
00000120: 4117 fd3a 5992 703b 4db1 d53b 48bb 8b3b
00000130: 24e4 cc3b 0905 2b3c 0feb a73b bfba 483c
00000140: 358f 873c a42b d03b 30ab 92bc a2a6 dbbc
00000150: d189 16bb f181 ef3c 1fdb 47bb b403 ca3c
00000160: 55eb a03c 3f87 7cbb 014f 8abc 9ad4 8ebc
00000170: 41b9 81bc 79d5 c6bc e39e cbbc afea b6bc
00000180: 109d a4bc c2e3 ccbc 3499 abbc 61a6 a83c
00000190: d00b e93c e893 dd3c 6521 133c 8698 9c3c
000001a0: f9ae a03c ab04 8fb6 3156 483c cfd5 793c
000001b0: 9117 61ba 9137 a33a f4f7 89bb fe5a 303c
000001c0: a857 5b3b a21b 79bb 2110 a33b 10d8 673c
000001d0: 88a0 b5ba 5271 5bbb 17ac 933b f820 c8bb
000001e0: e3f2 0db9 281e b53a 76f4 9cbc 15a1 5a3c
000001f0: fbfe 0b3b 6c4d b5bb c0c0 0000 d85f 0080
00000200: b672 0080 cfd3 0000 b48a 0080 4104 0080
00000210: 21da 0000 4ec1 0080 3d74 0080 75e8 4a3c
00000220: 7e37 6d3c 958a 623c 2ddf bc3c 5470 d13c
00000230: d031 c33c e0ab 963c ef61 d63c 2d5d ae3c
00000240: 9e7d 243b 5df2 203b 7847 1e3b 0bbc 293b
00000250: e690 243b 8e60 203b 62b3 223b e0c2 1f3b
00000260: b287 1d3b d26c a1bb 29d7 96bb 5810 b5ba
00000270: 7340 fbbb 70f9 d1bb 02bc 8fbb 389e 21bc
00000280: 377a 14bc 8937 09bc 7616 fc3b 8d52 0a3c
00000290: 79bb e03b 0f42 5f3c c742 5e3c d6f7 213c
000002a0: d206 853b 46fe 3d3c a8b1 1b3c c775 e03b
000002b0: 3f99 d8ba 8bb3 febb 6ed8 843b ed8d 3d3b
000002c0: f429 0cbb 658d 3bbb 73bc 92ba ca7c a6bb
000002d0: 464f 0000 63c4 0000 9668 0000 d21a 0000
000002e0: 1b07 0000 0865 0000 cebc 0000 be64 0000
000002f0: 647f 0080 950b 8b3a f811 343b 9953 c4ba
00000300: 7579 28ba 1e9c 543a 741d c23b d3f1 d938
00000310: 466e d8b9 0ef9 cb3b 0dac 93bc df51 13bc
00000320: 1e55 e2bb 1806 9ebc e487 a1bc 6b7d 35bc
00000330: 0726 59bc dbf3 8ebc fbd7 34bc 53cb 21bc
00000340: ae2a 1dbc ec42 143b 4299 833c d71c 9bbb
00000350: b50d 323c 599a 783c 175b 833c 867d 963b
00000360: e444 0100 8042 0100 8b46 0180 1746 0080
00000370: e316 0180 343c 0100 b3c6 0080 3f82 0000
00000380: 9b30 0100 538a 2ebc 77e9 08bc 0ebc ddbb
00000390: 2fc6 62bc 58ba 6bbc 334e 8bbc 5b95 00bc
000003a0: 584d ebbb fc5b 243b 4c1e f63b 5a19 443c
000003b0: 1fc6 2b3c 036e ac3c a568 e13c 529c e03c
000003c0: c16f 853c e7c5 e03c 18a0 ab3c 3ec6 53bb
000003d0: 29da f53b 2e90 6d3b fa9d ac3b a02f 903c
000003e0: f091 8a3a a116 6cbb 6810 6c3d 649c a83c
000003f0: 0aa3 a1bb d653 fdbb 8031 b93b 06d2 f0ba

e_conv6.bias f4 [32]
0.025973707 0.024510013 0.03303552 -0.004615287 0.024963895 -2.548515e-18 0.012539026 0.02979738
-0.00027779752 0.024957744 0.02654908 -4.9761506e-10 0.024822991 -0.0049717724 -0.0005311034 0.040157683
-0.0011114888 -0.0031703892 0.021380613 -2.390057e-08 0.017159376 -0.014213919 0.010170808 -3.6139952e-29
0.038287908 0.011430447 0.009057657 0.02363285 0.028385578 -0.005084277 0.035458267 -0.007522497
00000000: d0c6 d43c 39c9 c83c 4150 073d d53b 97bb
00000010: 1581 cc3c 160c 3ca2 7d70 4d3c a319 f43c
00000020: 5aa5 91b9 2f74 cc3c 757d d93c 8cc8 08b0
00000030: 9659 cb3c 40ea a2bb bf39 0bba 627c 243d
00000040: 60af 91ba 4ec6 4fbb 6526 af3c e94d cdb2
00000050: d291 8c3c 7fe1 68bc 76a3 263c 5740 3790
00000060: c8d3 1c3d c546 3b3c 9166 143c ae99 c13c
00000070: df88 e83c 029a a6bb b03c 113d 477f f6bb
